saves/files/Seed_0_flow_60_batch_50_epochs_50_logdet_1.5_ndim_2_lr_0.001.pt (torch, 72711 bytes, 180 tensors)

model.0.w f8 [1, 2]
-0.27667395067774125 0.0026449872398067687
00000000: 9a39 74a8 06b5 d1bf f692 2fb6 f0aa 653f

model.0.b f8 [1]
-0.09250551916375784
00000000: e101 8213 71ae b7bf

model.0.u f8 [1, 2]
-0.12845020592866832 -0.0211254945926421
00000000: 7165 d06c 0e71 c0bf 1984 8cf1 eba1 95bf

model.1.w f8 [1, 2]
-0.14523408589599485 0.05473777399576238
00000000: 4808 98d0 0797 c2bf bcd4 55ea 9606 ac3f

model.1.b f8 [1]
0.001090531296797556
00000000: 5915 5210 05de 513f

model.1.u f8 [1, 2]
-0.14582217522072416 -0.10717052823333002
00000000: 4463 cd10 4daa c2bf 4571 db19 876f bbbf

model.2.w f8 [1, 2]
0.15290430687269305 0.032800657061695514
00000000: 23c7 b74a 5e92 c33f eb0d bc6a 3fcb a03f

model.2.b f8 [1]
0.13169248953302562
00000000: 592a d6ab 4cdb c03f

model.2.u f8 [1, 2]
0.05640302207912016 -0.016590422511250414
00000000: ed65 735e dbe0 ac3f 9d58 7368 14fd 90bf

model.3.w f8 [1, 2]
0.07778294138998776 0.008107362017180356
00000000: 20e9 7435 95e9 b33f 95d5 c3b5 979a 803f

model.3.b f8 [1]
0.024228455908288295
00000000: 6ae2 0827 58cf 983f

model.3.u f8 [1, 2]
0.08939308922041198 -0.04003786487974112
00000000: 0ea9 b02a 77e2 b63f 0c33 85d0 d77f a4bf

model.4.w f8 [1, 2]
0.0551103784620588 -0.11958106753241246
00000000: e156 5472 6d37 ac3f 2ec1 4566 dd9c bebf

model.4.b f8 [1]
-0.015212412425083404
00000000: f639 df6e af27 8fbf

model.4.u f8 [1, 2]
0.24798824603737307 -0.058759713894235635
00000000: 02ef 422f 14be cf3f 9201 ffd2 c015 aebf

model.5.w f8 [1, 2]
0.166621695857649 0.32178235002554934
00000000: e19e 4117 dc53 c53f 6a8b 72ff 1498 d43f

model.5.b f8 [1]
-0.06061830024182737
00000000: d3cf 27a2 5c09 afbf

model.5.u f8 [1, 2]
0.19222129847633734 0.06085983641122335
00000000: 8e77 461f b59a c83f da5e 0d3e 0529 af3f

model.6.w f8 [1, 2]
0.24620992639631925 0.3690003744297741
00000000: 2550 e98e ce83 cf3f 01cf 18bf b39d d73f

model.6.b f8 [1]
-0.014834878172855302
00000000: ec8e bda4 bf61 8ebf

model.6.u f8 [1, 2]
0.19814741123597812 0.1743324641058856
00000000: dcd5 85f5 e45c c93f b6a1 fbb3 8650 c63f

model.7.w f8 [1, 2]
-0.19094633332523098 0.1331043978892722
00000000: 4624 76f0 ed70 c8bf 64b0 f19d 9009 c13f

model.7.b f8 [1]
0.01248412873564775
00000000: 41fa 1b65 4791 893f

model.7.u f8 [1, 2]
-0.1130454516072119 0.05141170335177421
00000000: 8f51 9df5 8bf0 bcbf 9a17 0e81 a252 aa3f

model.8.w f8 [1, 2]
-0.10296003721537614 0.026846777139895875
00000000: 468e a2c8 965b babf 7481 46b7 b87d 9b3f

model.8.b f8 [1]
0.05099322134037181
00000000: f7fc f293 c81b aa3f

model.8.u f8 [1, 2]
-0.12363361581645445 0.022586316872397563
00000000: b52e 9ee0 73a6 bfbf 6756 3711 de20 973f

model.9.w f8 [1, 2]
-0.03405289973199515 -0.07093024191416887
00000000: 47a3 5db5 616f a1bf e197 51fd 7b28 b2bf

model.9.b f8 [1]
-0.049877627595377026
00000000: 0bff a576 8f89 a9bf

model.9.u f8 [1, 2]
-0.06649089659066688 -0.1837555059373641
00000000: 99b0 5622 8c05 b1bf 2fff 3ae8 4c85 c7bf

model.10.w f8 [1, 2]
-0.02928054010559701 -0.17368530764109652
00000000: 64a9 a6c8 b7fb 9dbf 629e 0ef6 513b c6bf

model.10.b f8 [1]
0.05339861918286453
00000000: f77b 1556 1057 ab3f

model.10.u f8 [1, 2]
-0.006033456048900748 -0.10992271855785048
00000000: ac11 9786 89b6 78bf f51a 4b31 e523 bcbf

model.11.w f8 [1, 2]
-0.06056808029297627 -0.0701947108288421
00000000: 4765 1488 c702 afbf 90af 5cd3 47f8 b1bf

model.11.b f8 [1]
-0.017429654496904288
00000000: a9db 2d50 14d9 91bf

model.11.u f8 [1, 2]
-0.034157461762112935 -0.14582384369519233
00000000: b983 5d3a 167d a1bf 4ded d20f 5baa c2bf

model.12.w f8 [1, 2]
0.25675613818466203 0.1404106366670353
00000000: 6e39 234c b16e d03f 126b 3fca f9f8 c13f

model.12.b f8 [1]
0.03491170039387485
00000000: a6fe e046 f2df a13f

model.12.u f8 [1, 2]
0.09726371318799458 0.06970800408531615
00000000: b3de 3a53 46e6 b83f addc d03d 62d8 b13f

model.13.w f8 [1, 2]
-0.25392185397363903 0.06569593251365811
00000000: 299d a372 4140 d0bf bf5a a0d9 72d1 b03f

model.13.b f8 [1]
0.02898762854854715
00000000: d31d 6bd2 eeae 9d3f

model.13.u f8 [1, 2]
-0.18146001560972644 0.03065984957022761
00000000: 83a7 49f0 143a c7bf 2250 d1ac 4b65 9f3f

model.14.w f8 [1, 2]
-0.09876499894164832 -0.1761998709728479
00000000: 6da0 71b8 a948 b9bf 7aa3 b1a5 b78d c6bf

model.14.b f8 [1]
0.034424653411827065
00000000: dbec 28b1 1ba0 a13f

model.14.u f8 [1, 2]
-0.044699712931737724 -0.20039251294692909
00000000: c563 5d7a e1e2 a6bf 5933 bc3c 76a6 c9bf

model.15.w f8 [1, 2]
0.08648630449497312 -0.19534657042517803
00000000: 4399 5b69 f723 b63f c152 aecd 1d01 c9bf

model.15.b f8 [1]
-0.054281295744847295
00000000: 3f6a 040c c2ca abbf

model.15.u f8 [1, 2]
0.17100837744789044 -0.13190708389044184
00000000: 0488 3d3e 9ae3 c53f 55c8 b5d1 54e2 c0bf

model.16.w f8 [1, 2]
0.06866947499159719 -0.06691401435887119
00000000: cb88 529d 5294 b13f c5bf 50df 4621 b1bf

model.16.b f8 [1]
-0.09262411790434931
00000000: c753 38d5 36b6 b7bf

model.16.u f8 [1, 2]
0.17393184649574894 -0.035673184430328825
00000000: 2a50 3714 6643 c63f 7ce3 f170 c143 a2bf

model.17.w f8 [1, 2]
-0.25387240484134466 -0.1869111735578362
00000000: eea0 090b 723f d0bf aa0c d890 b4ec c7bf

model.17.b f8 [1]
0.0015847892048834922
00000000: 52f8 9573 16f7 593f

model.17.u f8 [1, 2]
-0.10094783736521047 -0.11193369687602535
00000000: b5e3 15ac b7d7 b9bf dd24 67cf afa7 bcbf

model.18.w f8 [1, 2]
0.01939575896827835 0.11436111273778318
00000000: 95a6 cc59 7bdc 933f 3a98 2417 c546 bd3f

model.18.b f8 [1]
0.07666718943971758
00000000: f5df 51ff 75a0 b33f

model.18.u f8 [1, 2]
0.0033397877356683434 0.25205498214964234
00000000: 0279 35e3 0a5c 6b3f d919 4838 ab21 d03f

model.19.w f8 [1, 2]
0.03406301357090173 -0.014668855110681289
00000000: a698 9412 b570 a13f 06d8 c267 b40a 8ebf

model.19.b f8 [1]
-0.08801361874274116
00000000: a049 1a7e 0f88 b6bf

model.19.u f8 [1, 2]
0.09917402637221757 -0.08840363685822436
00000000: ed9d e10f 7863 b93f fe4d 27e9 9ea1 b6bf

model.20.w f8 [1, 2]
-0.07991372315320142 -0.1986014203308406
00000000: 2ed1 71cb 3975 b4bf 484b a176 c56b c9bf

model.20.b f8 [1]
-0.04801025195031985
00000000: 03aa ffbb cc94 a8bf

model.20.u f8 [1, 2]
0.02822188710180275 -0.10855534523317882
00000000: c5da 88c8 32e6 9c3f 3b1e 9579 48ca bbbf

model.21.w f8 [1, 2]
0.13370203259240857 -0.05995343869029118
00000000: c951 b2f0 251d c13f e842 ea94 37b2 aebf

model.21.b f8 [1]
0.02623204033762375
00000000: 8906 6e6d 92dc 9a3f

model.21.u f8 [1, 2]
0.2636534523372657 -0.2546815502449802
00000000: fb06 d1ba b2df d03f e497 4cd8 b34c d0bf

model.22.w f8 [1, 2]
0.0842680577821648 0.15563159705380056
00000000: 0d97 4568 9792 b53f 5b00 c975 bceb c33f

model.22.b f8 [1]
0.052213005024123044
00000000: cc4c 02ba a9bb aa3f

model.22.u f8 [1, 2]
0.10125865529892554 0.23182975482007123
00000000: 6921 f254 16ec b93f 5290 98ef 98ac cd3f

model.23.w f8 [1, 2]
-0.0778848166797338 0.06939323408705139
00000000: c991 7e64 42f0 b3bf e4b1 f746 c1c3 b13f

model.23.b f8 [1]
-0.11503353942753052
00000000: 7bcc c889 d672 bdbf

model.23.u f8 [1, 2]
-0.19629895768748198 -0.03229988524753449
00000000: 05d9 c001 5320 c9bf 44fd 9a4d 9c89 a0bf

model.24.w f8 [1, 2]
-0.15472694886097424 -0.12074195478041792
00000000: cb78 95b8 17ce c3bf 3779 09db f1e8 bebf

model.24.b f8 [1]
0.016671696772773966
00000000: afae a1a1 6212 913f

model.24.u f8 [1, 2]
-0.13350017432767128 -0.16072546433212553
00000000: e5b2 5fa1 8816 c1bf 346f 78ea a692 c4bf

model.25.w f8 [1, 2]
-0.0040930367104716064 0.11325092956374846
00000000: b03d 012d dcc3 70bf 3ec8 b74e 03fe bc3f

model.25.b f8 [1]
-0.17998940774456218
00000000: b4d4 f195 e409 c7bf

model.25.u f8 [1, 2]
0.050713394454918126 0.0835108219033298
00000000: c858 4e25 1bf7 a93f 7fd7 ef18 f760 b53f

model.26.w f8 [1, 2]
-0.040084587461070326 -0.17556297548101227
00000000: 0c1a 7090 f785 a4bf b329 0afb d878 c6bf

model.26.b f8 [1]
-0.037942346819561865
00000000: 9e6f 72e5 2d6d a3bf

model.26.u f8 [1, 2]
0.07247687239721042 -0.07392338040538873
00000000: fd91 a924 d88d b23f c23b 4085 a4ec b2bf

model.27.w f8 [1, 2]
-0.025755249415220467 0.02836945445539863
00000000: 4539 c187 955f 9abf 627d 5ddc e10c 9d3f

model.27.b f8 [1]
-0.016212338952916506
00000000: bdb5 60a6 f799 90bf

model.27.u f8 [1, 2]
0.01999151275777373 0.07624340052614959
00000000: 9204 f8b5 a778 943f 2caf cbff af84 b33f

model.28.w f8 [1, 2]
-0.10078592380655559 -0.031655597157571866
00000000: 2f74 a536 1bcd b9bf e6e2 0d95 2935 a0bf

model.28.b f8 [1]
0.05368734657935931
00000000: 28e4 886b e87c ab3f

model.28.u f8 [1, 2]
-0.13888778781765568 -0.11947657602596884
00000000: 95cc 3e35 13c7 c1bf 806a ab52 0496 bebf

model.29.w f8 [1, 2]
-0.11573819375810299 -0.23250387874198009
00000000: 6ed3 16ad 04a1 bdbf 04ea b1e5 afc2 cdbf

model.29.b f8 [1]
0.05870361727807943
00000000: 5785 bb88 660e ae3f

model.29.u f8 [1, 2]
-0.23196843629951977 -0.10077722302528934
00000000: 4f2b ce47 24b1 cdbf e747 133d 89cc b9bf

model.30.w f8 [1, 2]
0.05056444001996931 0.10764632174015826
00000000: 73e0 7310 95e3 a93f d49e 6897 b58e bb3f

model.30.b f8 [1]
0.027915159586996887
00000000: c780 f4a5 ca95 9c3f

model.30.u f8 [1, 2]
0.14536652242279727 0.07176611696366895
00000000: f59c dec5 5e9b c23f efe2 51a5 435f b23f

model.31.w f8 [1, 2]
0.024122743364983733 -0.04477623790045387
00000000: b69f 5ee7 a1b3 983f 173a d73a e9ec a6bf

model.31.b f8 [1]
0.13589496289527594
00000000: a1c5 a992 0165 c13f

model.31.u f8 [1, 2]
-0.20224693296169427 0.11061278778603165
00000000: 40b5 643d 3ae3 c9bf fe75 0fa2 1e51 bc3f

model.32.w f8 [1, 2]
-0.18525611647592855 0.03334401143685302
00000000: 48f4 d2f0 78b6 c7bf 1a08 475d 7712 a13f

model.32.b f8 [1]
-0.03046213014686843
00000000: 0e3b fdf2 7631 9fbf

model.32.u f8 [1, 2]
-0.08321238080845761 0.000146349865147586
00000000: d8d2 3116 684d b5bf 800c e8c4 af2e 233f

model.33.w f8 [1, 2]
-0.1513479567023958 0.10006013799189238
00000000: 1d36 2dae 5e5f c3bf eff4 4e8c 8a9d b93f

model.33.b f8 [1]
-0.02124103401078278
00000000: 575d a3a9 35c0 95bf

model.33.u f8 [1, 2]
-0.19076629339306372 0.14283541553472534
00000000: 64b3 a6a7 076b c8bf d852 374f 6e48 c23f

model.34.w f8 [1, 2]
0.06505740408426672 -0.1475967259494879
00000000: b692 e71e 9aa7 b03f 9790 7913 73e4 c2bf

model.34.b f8 [1]
-0.010502109858159128
00000000: bbd0 0953 2182 85bf

model.34.u f8 [1, 2]
0.12879983729191904 -0.2655041695535214
00000000: 990f 7358 837c c03f e0c6 4b33 05fe d0bf

model.35.w f8 [1, 2]
-0.06023927670765857 0.08373706614798243
00000000: ebc5 c9b6 aed7 aebf 048e 91d8 ca6f b53f

model.35.b f8 [1]
0.06942932612894981
00000000: b06e 1bcd 1ec6 b13f

model.35.u f8 [1, 2]
6.86358107049325e-05 0.20660881530302544
00000000: 61c0 ce3f 12fe 113f a859 655c 2872 ca3f

model.36.w f8 [1, 2]
-0.09565499108613784 -0.20801038900888089
00000000: a804 6a72 d87c b8bf 9fbc 029d 15a0 cabf

model.36.b f8 [1]
0.017707511890495582
00000000: a253 da01 eb21 923f

model.36.u f8 [1, 2]
-0.1226154579302466 -0.051440030046164556
00000000: 9562 cb05 ba63 bfbf 3acf 81fd 5856 aabf

model.37.w f8 [1, 2]
0.15318092830547128 -0.04515523864434646
00000000: 99b1 b8c2 6e9b c33f 11eb 7062 961e a7bf

model.37.b f8 [1]
-0.08482110855454077
00000000: 6391 400f d6b6 b5bf

model.37.u f8 [1, 2]
0.04701906176750889 0.04873075801689516
00000000: ecfc 28e9 e112 a83f 5bd4 fbe7 3cf3 a83f

model.38.w f8 [1, 2]
0.004076743546139787 0.012535610384767174
00000000: 3810 4783 c6b2 703f 9591 1a25 45ac 893f

model.38.b f8 [1]
-0.05498405049259974
00000000: 17ac 5595 de26 acbf

model.38.u f8 [1, 2]
0.2728979976686704 -0.01618199163752488
00000000: 6a5f c829 2977 d13f 6221 7813 0392 90bf

model.39.w f8 [1, 2]
-0.01256731334951472 -0.16840136536943745
00000000: 6091 ad3e e4bc 89bf 8a86 6e0a 2d8e c5bf

model.39.b f8 [1]
0.3532480622643317
00000000: 483e b3c2 9d9b d63f

model.39.u f8 [1, 2]
-0.07221587345220994 -0.020125566313175622
00000000: 79b4 ba4e bd7c b2bf 7ca7 83e4 cb9b 94bf

model.40.w f8 [1, 2]
0.22448237978304791 0.07430882520692188
00000000: 0625 d9af d6bb cc3f 8b62 1136 e705 b33f

model.40.b f8 [1]
-0.07910457024006846
00000000: b92d 2576 3240 b4bf

model.40.u f8 [1, 2]
-0.08990988047912025 0.13760761613752673
00000000: 3dbe 3e7c 5504 b7bf 9ddf 7e59 209d c13f

model.41.w f8 [1, 2]
-0.29094387167321867 0.08925262156355003
00000000: d4b7 730b d39e d2bf 3d9d b282 42d9 b63f

model.41.b f8 [1]
-0.026134648529858126
00000000: fcab e992 0ac3 9abf

model.41.u f8 [1, 2]
-0.1995128273271726 0.02852809840635049
00000000: 8558 40e6 a289 c9bf 3a7b b046 7836 9d3f

model.42.w f8 [1, 2]
0.05014358256923875 -0.10637020272857707
00000000: ab72 7a6e 6bac a93f fdf5 fcdd 133b bbbf

model.42.b f8 [1]
0.07138252623187158
00000000: d8f7 ab0f 2046 b23f

model.42.u f8 [1, 2]
0.14908635703954293 0.0039268437404430655
00000000: f2de e101 4315 c33f 8e39 1117 9815 703f

model.43.w f8 [1, 2]
0.19669263164068246 -0.001921810543177266
00000000: 5e65 2162 392d c93f 4dc7 a65b a87c 5fbf

model.43.b f8 [1]
0.02068698014157553
00000000: 1aef a4bc f72e 953f

model.43.u f8 [1, 2]
0.18591704366089948 0.03371428890347966
00000000: d972 2533 21cc c73f 8826 7fd0 ff42 a13f

model.44.w f8 [1, 2]
-0.09076059992126818 0.1113264882153102
00000000: 215c 6d30 163c b7bf 8f33 108a e47f bc3f

model.44.b f8 [1]
0.055678178611291464
00000000: 0502 79a8 d981 ac3f

model.44.u f8 [1, 2]
-0.14155309236955366 0.08054229936476487
00000000: bafc 2f67 691e c2bf e05f b78d 6b9e b43f

model.45.w f8 [1, 2]
0.02712787923387234 -0.24794764558405605
00000000: d22e 7a28 69c7 9b3f 15ad 739a bfbc cfbf

model.45.b f8 [1]
-0.025025560184493745
00000000: fdd5 39ea 4ca0 99bf

model.45.u f8 [1, 2]
-0.1374458440877974 -0.04775556944404816
00000000: 9d02 aa4e d397 c1bf 2497 ed01 6b73 a8bf

model.46.w f8 [1, 2]
-0.17156562585004503 -0.10038490268361205
00000000: 4665 12c8 dcf5 c5bf 2ccb 0932 d3b2 b9bf

model.46.b f8 [1]
0.018266257842396553
00000000: a1ad 36d0 63b4 923f

model.46.u f8 [1, 2]
-0.1731513612842 -0.24064391060757964
00000000: 4a9c fce4 d229 c6bf d542 056f 6bcd cebf

model.47.w f8 [1, 2]
-0.11934744745636736 -0.007837210606648833
00000000: 3ea9 afe7 8d8d bebf e4b7 fa99 f40c 80bf

model.47.b f8 [1]
-0.01978528984043514
00000000: 3de8 3953 9842 94bf

model.47.u f8 [1, 2]
-0.14668456045904593 -0.005294425052267043
00000000: 62f7 ff46 8fc6 c2bf e0b2 3567 9baf 75bf

model.48.w f8 [1, 2]
0.07874887941255211 0.06722399938075047
00000000: 5d6e acf5 e228 b43f e4bd d88e 9735 b13f

model.48.b f8 [1]
-0.029369785423843275
00000000: 0035 8bef 1c13 9ebf

model.48.u f8 [1, 2]
0.08310747982333408 0.07135931779633456
00000000: 46ea e423 8846 b53f 923b 33b0 9a44 b23f

model.49.w f8 [1, 2]
-0.33125284724054604 -0.18222732011725262
00000000: ccb8 6624 3f33 d5bf 78b0 2b8e 3953 c7bf

model.49.b f8 [1]
-0.04477083262205019
00000000: 8350 dadb 33ec a6bf

model.49.u f8 [1, 2]
-0.056579099968263616 -0.07607299059771722
00000000: c269 0090 eff7 acbf 68e2 b9fe 8479 b3bf

model.50.w f8 [1, 2]
-0.005163173388442185 0.10840630733324626
00000000: 7c0d 8dcd fa25 75bf b529 ad08 84c0 bb3f

model.50.b f8 [1]
0.03155284879557188
00000000: e460 58eb b127 a03f

model.50.u f8 [1, 2]
-0.09579405054992103 0.0970584080625804
00000000: 6d66 437a f585 b8bf 2a3c 6ee0 d1d8 b83f

model.51.w f8 [1, 2]
0.01949191632039513 -0.20558298784397575
00000000: 19a5 875c b0f5 933f 13b1 b318 8b50 cabf

model.51.b f8 [1]
-0.028531548624508036
00000000: 6569 fcd0 5f37 9dbf

model.51.u f8 [1, 2]
0.09126907868192069 -0.10780206253977374
00000000: a82c 130c 695d b73f 7fb7 0c7d ea98 bbbf

model.52.w f8 [1, 2]
0.16737791187188192 -0.02820493353995197
00000000: 1900 c8b0 a36c c53f 534e 8f0c c1e1 9cbf

model.52.b f8 [1]
0.0825094039788518
00000000: 6b9d b317 561f b53f

model.52.u f8 [1, 2]
0.03449814949579427 0.0587845705700407
00000000: d8c2 b6cf bda9 a13f 3e28 37e0 0219 ae3f

model.53.w f8 [1, 2]
-0.003861106948155368 0.16655282513171166
00000000: 4cac 3202 54a1 6fbf 40a1 7f5c 9a51 c53f

model.53.b f8 [1]
-0.06831520311030861
00000000: daa9 2deb 1a7d b1bf

model.53.u f8 [1, 2]
0.010628455822626436 0.12616545108444055
00000000: 1940 5231 5fc4 853f 2879 2583 3026 c03f

model.54.w f8 [1, 2]
-0.07515102400643846 -0.04273700960092723
00000000: 375a 5ef6 183d b3bf 2630 2115 a0e1 a5bf

model.54.b f8 [1]
-0.17237606447337092
00000000: 4f5e c33b 6b10 c6bf

model.54.u f8 [1, 2]
0.1644900687401914 0.07478973665077841
00000000: cac1 e0b4 020e c53f f3d5 fd90 6b25 b33f

model.55.w f8 [1, 2]
-0.10393126966890781 0.18657719377383722
00000000: bc7c 425c 3d9b babf 3113 b8f0 c2e1 c73f

model.55.b f8 [1]
0.03110840823922622
00000000: 1e87 12f0 e1da 9f3f

model.55.u f8 [1, 2]
-0.1641828116139279 0.048619517838848596
00000000: 303c 393f f103 c5bf 775a 214e a8e4 a83f

model.56.w f8 [1, 2]
-0.043911740865402366 0.09463870637265642
00000000: fcca da85 997b a6bf 146a ce04 3e3a b83f

model.56.b f8 [1]
-0.1277924049510119
00000000: 668c f863 805b c0bf

model.56.u f8 [1, 2]
-0.02501216536241701 0.02984590009828536
00000000: 9e55 ef00 ca9c 99bf c005 5e73 ec8f 9e3f

model.57.w f8 [1, 2]
0.28349579468328673 -0.045618443815965776
00000000: c3f7 ad8b cb24 d23f ac66 91f8 4c5b a7bf

model.57.b f8 [1]
-0.0072713120481434365
00000000: 61f1 21f7 85c8 7dbf

model.57.u f8 [1, 2]
0.07490066375245998 0.055949481568888834
00000000: 59f8 439d b02c b33f 8610 2213 69a5 ac3f

model.58.w f8 [1, 2]
-0.07784407680693728 -0.15090912844779686
00000000: 30b7 12e4 96ed b3bf 82f2 ac85 fd50 c3bf

model.58.b f8 [1]
0.11881377580113267
00000000: ec50 6161 946a be3f

model.58.u f8 [1, 2]
-0.034513996174281907 -0.044051057460348604
00000000: 5747 a589 d1ab a1bf c9f6 4a36 dc8d a6bf

model.59.w f8 [1, 2]
-0.13665963635181436 -0.030630875675165405
00000000: d53a 681e 107e c1bf ba38 1745 b35d 9fbf

model.59.b f8 [1]
-0.004398880585293887
00000000: dca8 0b84 8f04 72bf

model.59.u f8 [1, 2]
-0.08219599308619002 -0.03248069173664822
00000000: 94dc 2aee cb0a b5bf 1c4e 8529 4fa1 a0bf
