saves/files/Seed_0_flow_40_batch_100_epochs_50_logdet_1.5_ndim_2_lr_0.001.pt (torch, 48525 bytes, 120 tensors)

model.0.w f8 [1, 2]
00000000: 731a c17f 3982 d1bf a713 a979 551a 753f
-0.27357327915198154 0.005152067077294576

model.0.b f8 [1]
00000000: 4cb2 7e35 2e82 b5bf
-0.08401764684703855

model.0.u f8 [1, 2]
00000000: 25f0 fe55 9114 c0bf 5cfb 92df e886 8cbf
-0.12562767695442392 -0.013929194758359457

model.1.w f8 [1, 2]
00000000: f7c0 f94f 843c c2bf aacd 96de 443a ad3f
-0.14247182755526186 0.057085182353513744

model.1.b f8 [1]
00000000: 5f3e be9e 47a5 903f
0.016255492271339708

model.1.u f8 [1, 2]
00000000: 175a 59c2 0f5d c2bf bc70 be63 cdf2 babf
-0.14346501340578818 -0.10526736912874218

model.2.w f8 [1, 2]
00000000: 7954 d8ef 6945 c33f 8cf0 6d2f 7cad a03f
0.15055584155257742 0.03257358626339721

model.2.b f8 [1]
00000000: 9540 c26b 6b47 c13f
0.1349920536199575

model.2.u f8 [1, 2]
00000000: 180a 23ec 775e ab3f 7842 6c14 238b 93bf
0.053455112052251674 -0.01908545314933227

model.3.w f8 [1, 2]
00000000: 0b0e 1c9a 3c67 b33f c21c 0882 331c 803f
0.07579401743355889 0.007866289525749418

model.3.b f8 [1]
00000000: ca83 a07e c5e1 9c3f
0.02820499978418293

model.3.u f8 [1, 2]
00000000: e48d 725a 232f b63f 907b 34b2 140b a6bf
0.08665677030744906 -0.04305329013208514

model.4.w f8 [1, 2]
00000000: 0d8b 2bf0 e7f9 aa3f 3046 3660 b82e c0bf
0.052687881534231186 -0.12642578790523507

model.4.b f8 [1]
00000000: 4dec 2fc1 d0e5 96bf
-0.02236105136033144

model.4.u f8 [1, 2]
00000000: 0871 b0fe f92c d03f 0169 0ebd 3a99 adbf
0.2527451502990208 -0.05780967290702855

model.5.w f8 [1, 2]
00000000: 5258 ad84 45ef c43f 35c9 40b4 36b2 d43f
0.16355198839545665 0.3233773002895249

model.5.b f8 [1]
00000000: 19c5 2d40 38e4 adbf
-0.058381803354573054

model.5.u f8 [1, 2]
00000000: 7c02 78a2 034a c83f 3503 e7c9 2de4 ad3f
0.18975873406454358 0.05838149156216447

model.6.w f8 [1, 2]
00000000: d882 f642 4f06 cf3f 7c1a a93e 2c68 d73f
0.24238005418467057 0.3657332050246749

model.6.b f8 [1]
00000000: cffd e800 1e91 7fbf
-0.00770675392283189

model.6.u f8 [1, 2]
00000000: a53e 2aa1 3cfe c83f 6cc4 298d bef7 c53f
0.19525869244943297 0.17162305729610539

model.7.w f8 [1, 2]
00000000: 83b0 01d2 3918 c8bf 3b73 485d d5cf c13f
-0.1882393145964479 0.13915507368883503

model.7.b f8 [1]
00000000: 32a5 bff2 53ff 8d3f
0.01464715561447125

model.7.u f8 [1, 2]
00000000: 8343 a902 7657 bcbf 7d04 0b22 ae2a ab3f
-0.11070954861612674 0.053059999137539095

model.8.w f8 [1, 2]
00000000: f3bf 453d a6b0 b9bf 3dca deb7 702e 9c3f
-0.10035170551213905 0.027520905706930988

model.8.b f8 [1]
00000000: 722d 646a cb5d ad3f
0.05735622094843053

model.8.u f8 [1, 2]
00000000: 27d5 2fda d80b bfbf a03e f86e 04d6 9a3f
-0.12127452208354282 0.02620703627877552

model.9.w f8 [1, 2]
00000000: 860d 87a0 8c74 a0bf 659e 63dd 18a0 b1bf
-0.032139200778625684 -0.06884913830764956

model.9.b f8 [1]
00000000: 2feb a9e5 118e a5bf
-0.04209953239929686

model.9.u f8 [1, 2]
00000000: f9c7 8a79 fed8 b0bf 5109 9c60 f14d c7bf
-0.06581106631600155 -0.18206612794171886

model.10.w f8 [1, 2]
00000000: f07e e620 5724 98bf 0824 8dcf c4fd c5bf
-0.023576127417640202 -0.17180690893499695

model.10.b f8 [1]
00000000: c71a 80a7 db12 a93f
0.04897200030977938

model.10.u f8 [1, 2]
00000000: c0af 0d07 2906 71bf 227b 7f50 3895 bbbf
-0.00415626551044207 -0.1077456661728147

model.11.w f8 [1, 2]
00000000: 9af6 f662 ed1a afbf 13bf 4850 d274 b1bf
-0.060752313929225824 -0.06818880519926677

model.11.b f8 [1]
00000000: 210c 82dc 8d31 80bf
-0.007907017032499354

model.11.u f8 [1, 2]
00000000: dbf4 c49e 32ea 9fbf 9f74 9328 8a6f c2bf
-0.031166830959809082 -0.14402892094850459

model.12.w f8 [1, 2]
00000000: 0f74 b86d 083b d03f 3ad1 5e15 77b8 c13f
0.25360308375258084 0.13844193023181522

model.12.b f8 [1]
00000000: d18b 15c3 8c3f 9a3f
0.02563304844569442

model.12.u f8 [1, 2]
00000000: 735b e64b 1a29 b83f 28bb d090 9f55 b13f
0.09437717774413361 0.06771275792628428

model.13.w f8 [1, 2]
00000000: cebc 400b 0d0f d0bf a9ca 05f4 afad b23f
-0.25091863726534036 0.07296275813659271

model.13.b f8 [1]
00000000: bd1e 2bab c333 a03f
0.03164493050058812

model.13.u f8 [1, 2]
00000000: 2379 bd5e d4e2 c6bf e615 92a2 7bc3 a33f
-0.1787972891424455 0.038600791544961585

model.14.w f8 [1, 2]
00000000: 6fa1 d0e4 4709 b9bf 5571 bf92 e646 c6bf
-0.09779786430647673 -0.17403871694012688

model.14.b f8 [1]
00000000: c9c7 6c96 a9f6 9f3f
0.03121438007946845

model.14.u f8 [1, 2]
00000000: 5a8f 5391 6b93 a5bf d66a 733b dd56 c9bf
-0.04214035176280957 -0.19796338465569957

model.15.w f8 [1, 2]
00000000: 2094 ef4c ecb3 b53f 7665 ca03 9e11 c9bf
0.08477665785137889 -0.19585013566101467

model.15.b f8 [1]
00000000: c219 2c06 ad98 adbf
-0.05780544948906964

model.15.u f8 [1, 2]
00000000: 608c 60ff bf25 c63f bdc4 b3a9 6abb c0bf
0.17302703828417787 -0.13071950231782195

model.16.w f8 [1, 2]
00000000: 3ebc fb05 3bf3 b03f 1ee8 1b28 84b5 afbf
0.06621140380933441 -0.0619317339860148

model.16.b f8 [1]
00000000: 4de2 ff94 da42 b9bf
-0.09867635858234643

model.16.u f8 [1, 2]
00000000: 3225 6c2c 064b c63f ee48 ce2a 9bad a1bf
0.1741645543009241 -0.03452763459712736

model.17.w f8 [1, 2]
00000000: 091d bd83 fd0a d0bf 82cd 4c80 bb90 c7bf
-0.2506707941542606 -0.1841043831314942

model.17.b f8 [1]
00000000: 6544 d55e 6c74 2bbf
-0.00020946333772056954

model.17.u f8 [1, 2]
00000000: 06c2 0e0a d61b b9bf 48a8 1dd1 3fff bbbf
-0.0980809950403981 -0.10936354499213607

model.18.w f8 [1, 2]
00000000: 5b2c e176 d3d2 8b3f 53e3 f9be d8c8 bc3f
0.013585712495247806 0.11243967688086558

model.18.b f8 [1]
00000000: 53aa 376e da16 b13f
0.06675496283393416

model.18.u f8 [1, 2]
00000000: 07ed d967 91ae 393f 5273 515a 1503 d03f
0.00039187478964893035 0.25018819637425793

model.19.w f8 [1, 2]
00000000: f94a 88ea 8219 a13f 53b6 5b1d 3e67 8cbf
0.033397761468355776 -0.01386879469961425

model.19.b f8 [1]
00000000: e10e 5588 19e0 b5bf
-0.08545074060844683

model.19.u f8 [1, 2]
00000000: 599f 58af d6cc b93f 5efd 79dc 3531 b7bf
0.10078183918869622 -0.0905946410439262

model.20.w f8 [1, 2]
00000000: acf5 5edf c70c b4bf 4f24 0750 2534 c9bf
-0.07832001880065914 -0.19690386207210728

model.20.b f8 [1]
00000000: 9d1a 56f7 72de a5bf
-0.042712776844429735

model.20.u f8 [1, 2]
00000000: c6a4 8d5a 07da 9f3f 9dd3 6d76 5731 bbbf
0.031105151082930126 -0.10622164384206063

model.21.w f8 [1, 2]
00000000: ed5a 4eb4 d9ef c03f 2be3 6eeb 8488 aebf
0.13231965354926647 -0.059635308970831545

model.21.b f8 [1]
00000000: 22c3 3e51 6467 983f
0.023831908663569774

model.21.u f8 [1, 2]
00000000: e460 fe13 8db6 d03f 1c5f 73af a6cb d0bf
0.26114203407770575 -0.26242987760405057

model.22.w f8 [1, 2]
00000000: d9ef 470a 3536 b53f a739 b73b 72a0 c33f
0.08285838604928077 0.15333393016630945

model.22.b f8 [1]
00000000: c02e 8c57 d101 a53f
0.04102949327179095

model.22.u f8 [1, 2]
00000000: f70e 155f 528d b93f de75 1322 e261 cd3f
0.09981264897674778 0.22954966224544554

model.23.w f8 [1, 2]
00000000: a4ee e9d6 233f b3bf 9673 cae0 ae4e b23f
-0.07518218991202247 0.07151310909325867

model.23.b f8 [1]
00000000: 977b 4627 ad0a bbbf
-0.10563165863866995

model.23.u f8 [1, 2]
00000000: 7b2b ee1f 12fd c8bf 1ffa fd0f d9e0 a0bf
-0.19522310790156525 -0.03296545334068334

model.24.w f8 [1, 2]
00000000: 544d 0467 b56f c3bf 2875 027a ca45 bebf
-0.1518465760242217 -0.11825242499113087

model.24.b f8 [1]
00000000: fd1e da64 e8be 933f
0.0192829429202268

model.24.u f8 [1, 2]
00000000: 2eaa ee10 19bf c0bf 789f d4f4 2648 c4bf
-0.13083184553882304 -0.15845190958611588

model.25.w f8 [1, 2]
00000000: 6fbc f599 01e7 7dbf ee7f 2658 0675 bc3f
-0.0073003828577916504 0.11116065647229309

model.25.b f8 [1]
00000000: f059 3614 ea6b c6bf
-0.1751682852452201

model.25.u f8 [1, 2]
00000000: 97d7 2551 d93d a93f d036 e200 52d6 b43f
0.049299994617214064 0.08139526864598712

model.26.w f8 [1, 2]
00000000: 53cf 4977 501d a5bf 295b 4193 cb8c c6bf
-0.0412392755141854 -0.17617172899437009

model.26.b f8 [1]
00000000: b51f 683b fb2a a4bf
-0.03939042186908585

model.26.u f8 [1, 2]
00000000: c9f7 6c14 3c3d b33f d448 78d9 af5e b2bf
0.07515311716721763 -0.07175730761835847

model.27.w f8 [1, 2]
00000000: 8786 756b 3a44 9dbf b52b 073b b327 9b3f
-0.028580582436353665 0.026518631437095503

model.27.b f8 [1]
00000000: 7ac1 3ef7 c192 95bf
-0.021067648616452918

model.27.u f8 [1, 2]
00000000: 2223 fa61 8810 963f 139c 1112 81bf b43f
0.021547442417190095 0.08104712191708101

model.28.w f8 [1, 2]
00000000: 6757 7399 8f1c b9bf 33c3 297d 0fff 9dbf
-0.09809205528594377 -0.02929329110560559

model.28.b f8 [1]
00000000: a5f0 ebab a18a ae3f
0.05965142463353005

model.28.u f8 [1, 2]
00000000: 7b6d 38ac 4b78 c1bf 7f6c 2a59 6ec0 bebf
-0.13648363026809904 -0.12012376477143681

model.29.w f8 [1, 2]
00000000: 9f82 6f87 99e1 bcbf 95be 5c41 4f75 cdbf
-0.112817378583268 -0.23014250461118438

model.29.b f8 [1]
00000000: 1cb8 71cd f79c ad3f
0.05783819563735923

model.29.u f8 [1, 2]
00000000: c184 3ada cb6f cdbf e18b 7f6f a327 b9bf
-0.2299742522782591 -0.09826108429074011

model.30.w f8 [1, 2]
00000000: 1d3e d8ec 1381 a83f 3226 8d5a 5e51 bb3f
0.04785978571100833 0.10671033583380377

model.30.b f8 [1]
00000000: 6a67 812f 398b 953f
0.02103890755129304

model.30.u f8 [1, 2]
00000000: feb9 b04b 15b9 c23f 5364 49e9 d1d3 b13f
0.1462732905942658 0.06963836617923506

model.31.w f8 [1, 2]
00000000: 559d fde8 e992 9a3f 30fd 9c59 ab76 a6bf
0.025951056333182027 -0.04387412518416978

model.31.b f8 [1]
00000000: b904 56be 0f74 c23f
0.1441669158339545

model.31.u f8 [1, 2]
00000000: fbde 34a7 c9fe c9bf 5506 f844 019f bc3f
-0.2030880037725565 0.11180122312364323

model.32.w f8 [1, 2]
00000000: f622 eb14 a25b c7bf c763 846d 3c92 a23f
-0.1824839212552189 0.03627194249037973

model.32.b f8 [1]
00000000: 06cc 72ea 71ae 93bf
-0.019220142302128117

model.32.u f8 [1, 2]
00000000: f4da d735 a5a4 b4bf ae20 0f55 4d07 753f
-0.08063728870898129 0.005133916930340527

model.33.w f8 [1, 2]
00000000: 5b98 1fbc 601d c3bf 57ff 0a68 80c8 b93f
-0.1493340414592151 0.10071566143142029

model.33.b f8 [1]
00000000: 01b6 10a0 53e6 90bf
-0.016503626484498216

model.33.u f8 [1, 2]
00000000: 62c6 2844 8720 c8bf c512 b23d 298a c23f
-0.18849268749322606 0.1448413420913736

model.34.w f8 [1, 2]
00000000: 65f4 330f 1163 b13f 4802 f2a2 61b6 c2bf
0.06791788693586083 -0.14619083839717661

model.34.b f8 [1]
00000000: dc1e 509a 06f5 75bf
-0.005360627929810593

model.34.u f8 [1, 2]
00000000: 8a41 038e 7bbc c03f 7ebe 7176 80e8 d0bf
0.1307520335599402 -0.26419078413798747

model.35.w f8 [1, 2]
00000000: e346 1ad7 3d38 afbf a3c2 c7c1 97f2 b43f
-0.06097596407665919 0.08182667237248124

model.35.b f8 [1]
00000000: c3d8 79f2 8d90 ab3f
0.05383723816787402

model.35.u f8 [1, 2]
00000000: b0b4 9a1f 1b02 553f 680d 6ee1 d08b ca3f
0.0012822403790935626 0.2073918438655753

model.36.w f8 [1, 2]
00000000: ee75 e6b2 27bb b7bf c20e 2f3b 9caf cabf
-0.09269950978929106 -0.20848420038065824

model.36.b f8 [1]
00000000: 96ba 67e9 6e83 953f
0.0210091905554984

model.36.u f8 [1, 2]
00000000: a6a1 1d69 d1fc bebf 1f2b 5b60 a621 a9bf
-0.12104519668867528 -0.04908485342237711

model.37.w f8 [1, 2]
00000000: 864d 98cb de9e c33f 30f1 52ff bd3b a8bf
0.15328583661230882 -0.04733079663989981

model.37.b f8 [1]
00000000: e51d e071 1573 b9bf
-0.09941228895342354

model.37.u f8 [1, 2]
00000000: 454d 061a f5ef a63f 5cbb 690e 6688 a73f
0.044799479891617845 0.04596251417102934

model.38.w f8 [1, 2]
00000000: 5835 c523 3833 5c3f 9fa3 42a9 fdc9 923f
0.001721196006730116 0.01834865899641935

model.38.b f8 [1]
00000000: e700 d282 7345 aebf
-0.05912362071922122

model.38.u f8 [1, 2]
00000000: 98b1 5aff 228b d13f c957 69d2 6640 5bbf
0.27411723076763783 -0.001663303768187673

model.39.w f8 [1, 2]
00000000: 069a a1c1 f527 84bf 8412 4543 663b c5bf
-0.009841842624337193 -0.16587522778185726

model.39.b f8 [1]
00000000: f033 19d4 4fe9 d63f
0.3579902240060724

model.39.u f8 [1, 2]
00000000: 3d85 732a 48ed b2bf 3010 436e 1444 92bf
-0.07393313442618861 -0.01783782885537749
